…
reply":"2025-12-28T15:51:04.750223Z"}},"outputs":[],"execution_count":7},{"cell_type":"code","source":"enc=Encoder(728,8)\nenc","metadata":{"trusted":true,"execution":{"iopub.status.busy":"2025-12-28T15:51:07.366021Z","iopub.execute_input":"2025-12-28T15:51:07.366658Z","iopub.status.idle":"2025-12-28T15:51:07.427267Z","shell.execute_reply.started":"2025-12-28T15:51:07.366630Z","shell.execute_reply":"2025-12-28T15:51:07.426713Z"}},"outputs":[{"execution_count":8,"output_type":"execute_result","data":{"text/plain":"Encoder(\n  (dropout): Dropout(p=0.5, inplace=False)\n  (mha): MHA(\n    (W_query): Linear(in_features=728, out_features=728, bias=False)\n    (W_key): Linear(in_features=728, out_features=728, bias=False)\n    (W_value): Linear(in_features=728, out_features=728, bias=False)\n    (W_O): Linear(in_features=728, out_features=728, bias=False)\n    (dropout): Dropout(p=0.5, inplace=False)\n  )\n  (ffn): FFN(\n    (f1): Linear(in_features=728, out_features=2912, bias=True)\n    (f2): Linear(in_features=2912, out_features=728, bias=True)\n  )\n  (layernorm_attn): LayerNorm((728,), eps=1e-05, elementwise_affine=True)\n  (layernorm_ffn): LayerNorm((728,), eps=1e-05, elementwise_affine=True)\n)"},"metadata":{}}],"execution_count":8},{"cell_type":"code","source":"class Encoder_stack(nn.Module):\n    def __init__(self,d_model,num_heads,num_blocks,mul_factor=4,dropout=0.5,FFN_bias=True,MHA_bias=False):\n        super().__init__()\n        self.d_model=d_model\n        self.num_heads=num_heads\n        self.mul_factor=mul_factor\n        self.nu
…
ntrans","metadata":{"trusted":true,"execution":{"iopub.status.busy":"2025-12-28T15:51:10.805395Z","iopub.execute_input":"2025-12-28T15:51:10.805773Z","iopub.status.idle":"2025-12-28T15:51:11.087153Z","shell.execute_reply.started":"2025-12-28T15:51:10.805746Z","shell.execute_reply":"2025-12-28T15:51:11.086599Z"}},"outputs":[{"execution_count":10,"output_type":"execute_result","data":{"text/plain":"Encoder_stack(\n  (dropout): Dropout(p=0.5, inplace=False)\n  (encoder_stack): ModuleList(\n    (0-5): 6 x Encoder(\n      (dropout): Dropout(p=0.5, inplace=False)\n      (mha): MHA(\n        (W_query): Linear(in_features=728, out_features=728, bias=False)\n        (W_key): Linear(in_features=728, out_features=728, bias=False)\n        (W_value): Linear(in_features=728, out_features=728, bias=False)\n        (W_O): Linear(in_features=728, out_features=728, bias=False)\n        (dropout): Dropout(p=0.5, inplace=False)\n      )\n      (ffn): FFN(\n        (f1): Linear(in_features=728, out_features=2912, bias=True)\n        (f2): Linear(in_features=2912, out_features=728, bias=True)\n      )\n      (layernorm_attn): LayerNorm((728,), eps=1e-05, elementwise_affine=True)\n      (layernorm_ffn): LayerNorm((728,), eps=1e-05, elementwise_affine=True)\n    )\n  )\n)"},"metadata":{}}],"execution_count":10},{"cell_type":"markdown","source":"## Loading Dataset and basic EDA","metadata":{}},{"cell_type":"code","source":"import pandas as pd","metadata":{"trusted":true,"execution":{"iopub.status.busy":"2025-12-28T15:51:14.361014Z","iopub.execute_input":"2025-12-28T15:51:14.361305Z","iopub.status.idle":"2025
…
